…
	Require iter number per epoch: 1008
	Total epochs: 20; iters: 20160.
2025-02-26 10:40:56,080 INFO: mos_label is normalized from [0, 100], lower_better[False] to [0, 1], lower_better[False(higher better)].
2025-02-26 10:40:56,086 INFO: Dataset [GeneralNRDataset] - KonIQ10k is built.
2025-02-26 10:40:56,087 INFO: Number of val images/folders in KonIQ10k: 2015
2025-02-26 10:42:09,857 INFO: Network [Gamma_MoAE] is created.
2025-02-26 10:42:12,624 INFO: Network: Gamma_MoAE, with parameters: 272,704,566
2025-02-26 10:42:12,624 INFO: Gamma_MoAE(
  (clip_model): CLIPmoe_Adapter_model(
    (visual): VisionTransformer(
      (conv1): Conv2d(3, 768, kernel_size=(16, 16), stride=(16, 16), bias=False)
      (ln_pre): LayerNorm((768,), eps=1e-05, elementwise_affine=True)
      (transformer): Transformer(
        (resblocks): Sequential(
          (0): ResidualAttentionBlock(
            (attn): MultiheadAttention(
              (out_proj): NonDynamicallyQuantizableLinear(in_features=768, out_features=768, bias=True)
            )
            (ln_1): LayerNorm((768,), eps=1e-05, elementwise_affine=True)
            (mlp): Sequential(
              (c_fc): Linear(in_features=768, out_features=3072, bias=True)
              (gelu): QuickGELU()
              (c_proj): Linear(in_features=3072, out_features=768, bias=True)
            )
            (ln_2): LayerNorm((768,), eps=1e-05, elementwise_affine=True)
          )
          (1): ResidualAttentionBlock(
            (attn): MultiheadAttention(
              (out_proj): NonDynamicallyQuantizableLinear(in_features=768, out_features=768, bias=True)
            )
            (ln_1): LayerNorm((768,), eps=1e-05, elementwise_affine=True)
            (mlp): Sequential(
              (c_fc): Linear(in_features=768, out_features=3072, bias=True)
              (gelu): QuickGELU()
              (c_proj): Linear(in_features=3072, out_features=768, bias=True)
            )
            (ln_2): LayerNorm((768,), eps=1e-05, elementwise_affine=True)
          )
          (2): ResidualAttentionBlock(
            (attn): MultiheadAttention(
              (out_proj): NonDynamicallyQuantizableLinear(in_features=768, out_features=768, bias=True)
            )
            (ln_1): LayerNorm((768,), eps=1e-05, elementwise_affine=True)
            (mlp): Sequential(
              (c_fc): Linear(in_features=768, out_features=3072, bias=True)
              (gelu): QuickGELU()
              (c_proj): Linear(in_features=3072, out_features=768, bias=True)
            )
            (ln_2): LayerNorm((768,), eps=1e-05, elementwise_affine=True)
          )
          (3): ResidualAttentionBlock(
            (attn): MultiheadAttention(
              (out_proj): NonDynamicallyQuantizableLinear(in_features=768, out_features=768, bias=True)
            )
            (ln_1): LayerNorm((768,), eps=1e-05, elementwise_affine=True)
            (mlp): Sequential(
              (c_fc): Linear(in_features=768, out_features=3072, bias=True)
              (gelu): QuickGELU()
              (c_proj): Linear(in_features=3072, out_features=768, bias=True)
            )
            (ln_2): LayerNorm((768,), eps=1e-05, elementwise_affine=True)
          )
          (4): ResidualAttentionBlock(
            (attn): MultiheadAttention(
              (out_proj): NonDynamicallyQuantizableLinear(in_features=768, out_features=768, bias=True)
            )
            (ln_1): LayerNorm((768,), eps=1e-05, elementwise_affine=True)
            (mlp): Sequential(
              (c_fc): Linear(in_features=768, out_features=3072, bias=True)
              (gelu): QuickGELU()
              (c_proj): Linear(in_features=3072, out_features=768, bias=True)
            )
            (ln_2): LayerNorm((768,), eps=1e-05, elementwise_affine=True)
          )
          (5): ResidualAttentionBlock(
            (attn): MultiheadAttention(
              (out_proj): NonDynamicallyQuantizableLinear(in_features=768, out_features=768, bias=True)
            )
            (ln_1): LayerNorm((768,), eps=1e-05, elementwise_affine=True)
            (mlp): Sequential(
              (c_fc): Linear(in_features=768, out_features=3072, bias=True)
              (gelu): QuickGELU()
              (c_proj): Linear(in_features=3072, out_features=768, bias=True)
            )
            (ln_2): LayerNorm((768,), eps=1e-05, elementwise_affine=True)
          )
          (6): ResidualAttentionBlock(
            (attn): MultiheadAttention(
              (out_proj): NonDynamicallyQuantizableLinear(in_features=768, out_features=768, bias=True)
            )
            (ln_1): LayerNorm((768,), eps=1e-05, elementwise_affine=True)
            (mlp): MoE_clip(
              (useful_experts): Sequential(
                (c_fc): Linear(in_features=768, out_features=3072, bias=True)
                (gelu): QuickGELU()
                (c_proj): Linear(in_features=3072, out_features=768, bias=True)
              )
              (experts): ModuleDict(
                (expert_0): Sequential(
                  (c_fc): Linear(in_features=768, out_features=3072, bias=True)
                  (gelu): QuickGELU()
                  (c_proj): Linear(in_features=3072, out_features=768, bias=True)
                )
                (expert_1): Sequential(
                  (c_fc): Linear(in_features=768, out_features=3072, bias=True)
                  (gelu): QuickGELU()
                  (c_proj): Linear(in_features=3072, out_features=768, bias=True)
                )
                (expert_2): Sequential(
                  (c_fc): Linear(in_features=768, out_features=3072, bias=True)
                  (gelu): QuickGELU()
                  (c_proj): Linear(in_features=3072, out_features=768, bias=True)
                )
              )
              (gating): Gating(
                (layer1): Linear(in_features=768, out_features=3, bias=True)
              )
            )
            (ln_2): LayerNorm((768,), eps=1e-05, elementwise_affine=True)
          )
          (7): ResidualAttentionBlock(
            (attn): MultiheadAttention(
              (out_proj): NonDynamicallyQuantizableLinear(in_features=768, out_features=768, bias=True)
            )
            (ln_1): LayerNorm((768,), eps=1e-05, elementwise_affine=True)
            (mlp): MoE_clip(
              (useful_experts): Sequential(
                (c_fc): Linear(in_features=768, out_features=3072, bias=True)
                (gelu): QuickGELU()
                (c_proj): Linear(in_features=3072, out_features=768, bias=True)
              )
              (experts): ModuleDict(
                (expert_0): Sequential(
                  (c_fc): Linear(in_features=768, out_features=3072, bias=True)
                  (gelu): QuickGELU()
                  (c_proj): Linear(in_features=3072, out_features=768, bias=True)
                )
                (expert_1): Sequential(
                  (c_fc): Linear(in_features=768, out_features=3072, bias=True)
                  (gelu): QuickGELU()
                  (c_proj): Linear(in_features=3072, out_features=768, bias=True)
                )
                (expert_2): Sequential(
                  (c_fc): Linear(in_features=768, out_features=3072, bias=True)
                  (gelu): QuickGELU()
                  (c_proj): Linear(in_features=3072, out_features=768, bias=True)
                )
              )
              (gating): Gating(
                (layer1): Linear(in_features=768, out_features=3, bias=True)
              )
            )
            (ln_2): LayerNorm((768,), eps=1e-05, elementwise_affine=True)
          )
          (8): ResidualAttentionBlock(
            (attn): MultiheadAttention(
              (out_proj): NonDynamicallyQuantizableLinear(in_features=768, out_features=768, bias=True)
            )
            (ln_1): LayerNorm((768,), eps=1e-05, elementwise_affine=True)
            (mlp): MoE_clip(
              (useful_experts): Sequential(
                (c_fc): Linear(in_features=768, out_features=3072, bias=True)
                (gelu): QuickGELU()
                (c_proj): Linear(in_features=3072, out_features=768, bias=True)
              )
              (experts): ModuleDict(
                (expert_0): Sequential(
                  (c_fc): Linear(in_features=768, out_features=3072, bias=True)
                  (gelu): QuickGELU()
                  (c_proj): Linear(in_features=3072, out_features=768, bias=True)
                )
                (expert_1): Sequential(
                  (c_fc): Linear(in_features=768, out_features=3072, bias=True)
                  (gelu): QuickGELU()
                  (c_proj): Linear(in_features=3072, out_features=768, bias=True)
                )
                (expert_2): Sequential(
                  (c_fc): Linear(in_features=768, out_features=3072, bias=True)
                  (gelu): QuickGELU()
                  (c_proj): Linear(in_features=3072, out_features=768, bias=True)
                )
              )
              (gating): Gating(
                (layer1): Linear(in_features=768, out_features=3, bias=True)
              )
            )
            (ln_2): LayerNorm((768,), eps=1e-05, elementwise_affine=True)
          )
          (9): ResidualAttentionBlock(
            (attn): MultiheadAttention(
              (out_proj): NonDynamicallyQuantizableLinear(in_features=768, out_features=768, bias=True)
            )
            (ln_1): LayerNorm((768,), eps=1e-05, elementwise_affine=True)
            (mlp): MoE_clip(
              (useful_experts): Sequential(
                (c_fc): Linear(in_features=768, out_features=3072, bias=True)
                (gelu): QuickGELU()
                (c_proj): Linear(in_features=3072, out_features=768, bias=True)
              )
              (experts): ModuleDict(
                (expert_0): Sequential(
                  (c_fc): Linear(in_features=768, out_features=3072, bias=True)
                  (gelu): QuickGELU()
                  (c_proj): Linear(in_features=3072, out_features=768, bias=True)
                )
                (expert_1): Sequential(
                  (c_fc): Linear(in_features=768, out_features=3072, bias=True)
                  (gelu): QuickGELU()
                  (c_proj): Linear(in_features=3072, out_features=768, bias=True)
                )
                (expert_2): Sequential(
                  (c_fc): Linear(in_features=768, out_features=3072, bias=True)
                  (gelu): QuickGELU()
                  (c_proj): Linear(in_features=3072, out_features=768, bias=True)
                )
              )
              (gating): Gating(
                (layer1): Linear(in_features=768, out_features=3, bias=True)
              )
            )
            (ln_2): LayerNorm((768,), eps=1e-05, elementwise_affine=True)
          )
          (10): ResidualAttentionBlock(
            (attn): MultiheadAttention(
              (out_proj): NonDynamicallyQuantizableLinear(in_features=768, out_features=768, bias=True)
            )
            (ln_1): LayerNorm((768,), eps=1e-05, elementwise_affine=True)
            (mlp): MoE_clip(
              (useful_experts): Sequential(
                (c_fc): Linear(in_features=768, out_features=3072, bias=True)
                (gelu): QuickGELU()
                (c_proj): Linear(in_features=3072, out_features=768, bias=True)
              )
              (experts): ModuleDict(
                (expert_0): Sequential(
                  (c_fc): Linear(in_features=768, out_features=3072, bias=True)
                  (gelu): QuickGELU()
                  (c_proj): Linear(in_features=3072, out_features=768, bias=True)
                )
                (expert_1): Sequential(
                  (c_fc): Linear(in_features=768, out_features=3072, bias=True)
                  (gelu): QuickGELU()
                  (c_proj): Linear(in_features=3072, out_features=768, bias=True)
                )
                (expert_2): Sequential(
                  (c_fc): Linear(in_features=768, out_features=3072, bias=True)
                  (gelu): QuickGELU()
                  (c_proj): Linear(in_features=3072, out_features=768, bias=True)
                )
              )
              (gating): Gating(
                (layer1): Linear(in_features=768, out_features=3, bias=True)
              )
            )
            (ln_2): LayerNorm((768,), eps=1e-05, elementwise_affine=True)
          )
          (11): ResidualAttentionBlock(
            (attn): MultiheadAttention(
              (out_proj): NonDynamicallyQuantizableLinear(in_features=768, out_features=768, bias=True)
            )
            (ln_1): LayerNorm((768,), eps=1e-05, elementwise_affine=True)
            (mlp): MoE_clip(
              (useful_experts): Sequential(
                (c_fc): Linear(in_features=768, out_features=3072, bias=True)
                (gelu): QuickGELU()
                (c_proj): Linear(in_features=3072, out_features=768, bias=True)
              )
              (experts): ModuleDict(
                (expert_0): Sequential(
                  (c_fc): Linear(in_features=768, out_features=3072, bias=True)
                  (gelu): QuickGELU()
                  (c_proj): Linear(in_features=3072, out_features=768, bias=True)
                )
                (expert_1): Sequential(
                  (c_fc): Linear(in_features=768, out_features=3072, bias=True)
                  (gelu): QuickGELU()
                  (c_proj): Linear(in_features=3072, out_features=768, bias=True)
                )
                (expert_2): Sequential(
                  (c_fc): Linear(in_features=768, out_features=3072, bias=True)
                  (gelu): QuickGELU()
                  (c_proj): Linear(in_features=3072, out_features=768, bias=True)
                )
              )
              (gating): Gating(
                (layer1): Linear(in_features=768, out_features=3, bias=True)
              )
            )
            (ln_2): LayerNorm((768,), eps=1e-05, elementwise_affine=True)
          )
        )
      )
      (ln_post): LayerNorm((768,), eps=1e-05, elementwise_affine=True)
    )
    (transformer): Transformer(
      (resblocks): Sequential(
        (0): ResidualAttentionBlock(
          (attn): MultiheadAttention(
            (out_proj): NonDynamicallyQuantizableLinear(in_features=512, out_features=512, bias=True)
          )
          (ln_1): LayerNorm((512,), eps=1e-05, elementwise_affine=True)
          (mlp): Sequential(
            (c_fc): Linear(in_features=512, out_features=2048, bias=True)
            (gelu): QuickGELU()
            (c_proj): Linear(in_features=2048, out_features=512, bias=True)
          )
          (ln_2): LayerNorm((512,), eps=1e-05, elementwise_affine=True)
        )
        (1): ResidualAttentionBlock(
          (attn): MultiheadAttention(
            (out_proj): NonDynamicallyQuantizableLinear(in_features=512, out_features=512, bias=True)
          )
          (ln_1): LayerNorm((512,), eps=1e-05, elementwise_affine=True)
          (mlp): Sequential(
            (c_fc): Linear(in_features=512, out_features=2048, bias=True)
            (gelu): QuickGELU()
            (c_proj): Linear(in_features=2048, out_features=512, bias=True)
          )
          (ln_2): LayerNorm((512,), eps=1e-05, elementwise_affine=True)
        )
        (2): ResidualAttentionBlock(
          (attn): MultiheadAttention(
            (out_proj): NonDynamicallyQuantizableLinear(in_features=512, out_features=512, bias=True)
          )
          (ln_1): LayerNorm((512,), eps=1e-05, elementwise_affine=True)
          (mlp): Sequential(
            (c_fc): Linear(in_features=512, out_features=2048, bias=True)
            (gelu): QuickGELU()
            (c_proj): Linear(in_features=2048, out_features=512, bias=True)
          )
          (ln_2): LayerNorm((512,), eps=1e-05, elementwise_affine=True)
        )
        (3): ResidualAttentionBlock(
          (attn): MultiheadAttention(
            (out_proj): NonDynamicallyQuantizableLinear(in_features=512, out_features=512, bias=True)
          )
          (ln_1): LayerNorm((512,), eps=1e-05, elementwise_affine=True)
          (mlp): Sequential(
            (c_fc): Linear(in_features=512, out_features=2048, bias=True)
            (gelu): QuickGELU()
            (c_proj): Linear(in_features=2048, out_features=512, bias=True)
          )
          (ln_2): LayerNorm((512,), eps=1e-05, elementwise_affine=True)
        )
        (4): ResidualAttentionBlock(
          (attn): MultiheadAttention(
            (out_proj): NonDynamicallyQuantizableLinear(in_features=512, out_features=512, bias=True)
          )
          (ln_1): LayerNorm((512,), eps=1e-05, elementwise_affine=True)
          (mlp): Sequential(
            (c_fc): Linear(in_features=512, out_features=2048, bias=True)
            (gelu): QuickGELU()
            (c_proj): Linear(in_features=2048, out_features=512, bias=True)
          )
          (ln_2): LayerNorm((512,), eps=1e-05, elementwise_affine=True)
        )
        (5): ResidualAttentionBlock(
          (attn): MultiheadAttention(
            (out_proj): NonDynamicallyQuantizableLinear(in_features=512, out_features=512, bias=True)
          )
          (ln_1): LayerNorm((512,), eps=1e-05, elementwise_affine=True)
          (mlp): Sequential(
            (c_fc): Linear(in_features=512, out_features=2048, bias=True)
            (gelu): QuickGELU()
            (c_proj): Linear(in_features=2048, out_features=512, bias=True)
          )
          (ln_2): LayerNorm((512,), eps=1e-05, elementwise_affine=True)
        )
        (6): ResidualAttentionBlock(
          (attn): MultiheadAttention(
            (out_proj): NonDynamicallyQuantizableLinear(in_features=512, out_features=512, bias=True)
          )
          (ln_1): LayerNorm((512,), eps=1e-05, elementwise_affine=True)
          (mlp): MoE_clip(
            (useful_experts): Sequential(
              (c_fc): Linear(in_features=512, out_features=2048, bias=True)
              (gelu): QuickGELU()
              (c_proj): Linear(in_features=2048, out_features=512, bias=True)
            )
            (experts): ModuleDict(
              (expert_0): Sequential(
                (c_fc): Linear(in_features=512, out_features=2048, bias=True)
                (gelu): QuickGELU()
                (c_proj): Linear(in_features=2048, out_features=512, bias=True)
              )
              (expert_1): Sequential(
                (c_fc): Linear(in_features=512, out_features=2048, bias=True)
                (gelu): QuickGELU()
                (c_proj): Linear(in_features=2048, out_features=512, bias=True)
              )
              (expert_2): Sequential(
                (c_fc): Linear(in_features=512, out_features=2048, bias=True)
                (gelu): QuickGELU()
                (c_proj): Linear(in_features=2048, out_features=512, bias=True)
              )
            )
            (gating): Gating(
              (layer1): Linear(in_features=512, out_features=3, bias=True)
            )
          )
          (ln_2): LayerNorm((512,), eps=1e-05, elementwise_affine=True)
        )
        (7): ResidualAttentionBlock(
          (attn): MultiheadAttention(
            (out_proj): NonDynamicallyQuantizableLinear(in_features=512, out_features=512, bias=True)
          )
          (ln_1): LayerNorm((512,), eps=1e-05, elementwise_affine=True)
          (mlp): MoE_clip(
            (useful_experts): Sequential(
              (c_fc): Linear(in_features=512, out_features=2048, bias=True)
              (gelu): QuickGELU()
              (c_proj): Linear(in_features=2048, out_features=512, bias=True)
            )
            (experts): ModuleDict(
              (expert_0): Sequential(
                (c_fc): Linear(in_features=512, out_features=2048, bias=True)
                (gelu): QuickGELU()
                (c_proj): Linear(in_features=2048, out_features=512, bias=True)
              )
              (expert_1): Sequential(
                (c_fc): Linear(in_features=512, out_features=2048, bias=True)
                (gelu): QuickGELU()
                (c_proj): Linear(in_features=2048, out_features=512, bias=True)
              )
              (expert_2): Sequential(
                (c_fc): Linear(in_features=512, out_features=2048, bias=True)
                (gelu): QuickGELU()
                (c_proj): Linear(in_features=2048, out_features=512, bias=True)
              )
            )
            (gating): Gating(
              (layer1): Linear(in_features=512, out_features=3, bias=True)
            )
          )
          (ln_2): LayerNorm((512,), eps=1e-05, elementwise_affine=True)
        )
        (8): ResidualAttentionBlock(
          (attn): MultiheadAttention(
            (out_proj): NonDynamicallyQuantizableLinear(in_features=512, out_features=512, bias=True)
          )
          (ln_1): LayerNorm((512,), eps=1e-05, elementwise_affine=True)
          (mlp): MoE_clip(
            (useful_experts): Sequential(
              (c_fc): Linear(in_features=512, out_features=2048, bias=True)
              (gelu): QuickGELU()
              (c_proj): Linear(in_features=2048, out_features=512, bias=True)
            )
            (experts): ModuleDict(
              (expert_0): Sequential(
                (c_fc): Linear(in_features=512, out_features=2048, bias=True)
                (gelu): QuickGELU()
                (c_proj): Linear(in_features=2048, out_features=512, bias=True)
              )
              (expert_1): Sequential(
                (c_fc): Linear(in_features=512, out_features=2048, bias=True)
                (gelu): QuickGELU()
                (c_proj): Linear(in_features=2048, out_features=512, bias=True)
              )
              (expert_2): Sequential(
                (c_fc): Linear(in_features=512, out_features=2048, bias=True)
                (gelu): QuickGELU()
                (c_proj): Linear(in_features=2048, out_features=512, bias=True)
              )
            )
            (gating): Gating(
              (layer1): Linear(in_features=512, out_features=3, bias=True)
            )
          )
          (ln_2): LayerNorm((512,), eps=1e-05, elementwise_affine=True)
        )
        (9): ResidualAttentionBlock(
          (attn): MultiheadAttention(
            (out_proj): NonDynamicallyQuantizableLinear(in_features=512, out_features=512, bias=True)
          )
          (ln_1): LayerNorm((512,), eps=1e-05, elementwise_affine=True)
          (mlp): MoE_clip(
            (useful_experts): Sequential(
              (c_fc): Linear(in_features=512, out_features=2048, bias=True)
              (gelu): QuickGELU()
              (c_proj): Linear(in_features=2048, out_features=512, bias=True)
            )
            (experts): ModuleDict(
              (expert_0): Sequential(
                (c_fc): Linear(in_features=512, out_features=2048, bias=True)
                (gelu): QuickGELU()
                (c_proj): Linear(in_features=2048, out_features=512, bias=True)
              )
              (expert_1): Sequential(
                (c_fc): Linear(in_features=512, out_features=2048, bias=True)
                (gelu): QuickGELU()
                (c_proj): Linear(in_features=2048, out_features=512, bias=True)
              )
              (expert_2): Sequential(
                (c_fc): Linear(in_features=512, out_features=2048, bias=True)
                (gelu): QuickGELU()
                (c_proj): Linear(in_features=2048, out_features=512, bias=True)
              )
            )
            (gating): Gating(
              (layer1): Linear(in_features=512, out_features=3, bias=True)
            )
          )
          (ln_2): LayerNorm((512,), eps=1e-05, elementwise_affine=True)
        )
        (10): ResidualAttentionBlock(
          (attn): MultiheadAttention(
            (out_proj): NonDynamicallyQuantizableLinear(in_features=512, out_features=512, bias=True)
          )
          (ln_1): LayerNorm((512,), eps=1e-05, elementwise_affine=True)
          (mlp): MoE_clip(
            (useful_experts): Sequential(
              (c_fc): Linear(in_features=512, out_features=2048, bias=True)
              (gelu): QuickGELU()
              (c_proj): Linear(in_features=2048, out_features=512, bias=True)
            )
            (experts): ModuleDict(
              (expert_0): Sequential(
                (c_fc): Linear(in_features=512, out_features=2048, bias=True)
                (gelu): QuickGELU()
                (c_proj): Linear(in_features=2048, out_features=512, bias=True)
              )
              (expert_1): Sequential(
                (c_fc): Linear(in_features=512, out_features=2048, bias=True)
                (gelu): QuickGELU()
                (c_proj): Linear(in_features=2048, out_features=512, bias=True)
              )
              (expert_2): Sequential(
                (c_fc): Linear(in_features=512, out_features=2048, bias=True)
                (gelu): QuickGELU()
                (c_proj): Linear(in_features=2048, out_features=512, bias=True)
              )
            )
            (gating): Gating(
              (layer1): Linear(in_features=512, out_features=3, bias=True)
            )
          )
          (ln_2): LayerNorm((512,), eps=1e-05, elementwise_affine=True)
        )
        (11): ResidualAttentionBlock(
          (attn): MultiheadAttention(
            (out_proj): NonDynamicallyQuantizableLinear(in_features=512, out_features=512, bias=True)
          )
          (ln_1): LayerNorm((512,), eps=1e-05, elementwise_affine=True)
          (mlp): MoE_clip(
            (useful_experts): Sequential(
              (c_fc): Linear(in_features=512, out_features=2048, bias=True)
              (gelu): QuickGELU()
              (c_proj): Linear(in_features=2048, out_features=512, bias=True)
            )
            (experts): ModuleDict(
              (expert_0): Sequential(
                (c_fc): Linear(in_features=512, out_features=2048, bias=True)
                (gelu): QuickGELU()
                (c_proj): Linear(in_features=2048, out_features=512, bias=True)
              )
              (expert_1): Sequential(
                (c_fc): Linear(in_features=512, out_features=2048, bias=True)
                (gelu): QuickGELU()
                (c_proj): Linear(in_features=2048, out_features=512, bias=True)
              )
              (expert_2): Sequential(
                (c_fc): Linear(in_features=512, out_features=2048, bias=True)
                (gelu): QuickGELU()
                (c_proj): Linear(in_features=2048, out_features=512, bias=True)
              )
            )
            (gating): Gating(
              (layer1): Linear(in_features=512, out_features=3, bias=True)
            )
          )
          (ln_2): LayerNorm((512,), eps=1e-05, elementwise_affine=True)
        )
      )
    )
    (token_embedding): Embedding(49408, 512)
    (ln_final): LayerNorm((512,), eps=1e-05, elementwise_affine=True)
  )
  (adapter): Adapter(
    (fc): Sequential(
      (0): Linear(in_features=512, out_features=256, bias=False)
      (1): ReLU(inplace=True)
      (2): Linear(in_features=256, out_features=512, bias=False)
      (3): ReLU(inplace=True)
    )
  )
)
2025-02-26 10:44:02,223 INFO: Network [Gamma_MoAE] is created.
2025-02-26 10:44:02,703 INFO: Loss [MSELoss] is created.
2025-02-26 10:44:02,707 WARNING: Params clip_model.positional_embedding will not be optimized.
2025-02-26 10:44:02,707 WARNING: Params clip_model.text_projection will not be optimized.
2025-02-26 10:44:02,707 WARNING: Params clip_model.logit_scale will not be optimized.
…
